…
  stage: ""
}
layer {
  name: "train_labels"
  type: "Data"
  top: "label"
  include {
    phase: TRAIN
  }
  data_param {
    source: "workspace/lmdb/labels_no_00"
    batch_size: 5
    backend: LMDB
  }
}
layer {
  name: "train_images"
  type: "Data"
  top: "data"
  include {
    phase: TRAIN
  }
  transform_param {
    scale: 0.0078125
    mean_value: 91
    mean_value: 91
    mean_value: 91
    mean_value: 91
    mean_value: 91
    mean_value: 91
  }
  data_param {
    source: "workspace/lmdb/images_no_00"
    batch_size: 5
    backend: LMDB
  }
}
layer {
  name: "conv1"
  type: "Convolution"
  bottom: "data"
  top: "conv1"
  param {
    lr_mult: 1
    decay_mult: 1
  }
  param {
    lr_mult: 1
    decay_mult: 0
  }
  convolution_param {
    num_output: 64
    pad: 3
    kernel_size: 7
    stride: 2
    weight_filler {
      type: "msra"
    }
    bias_filler {
      type: "constant"
    }
  }
}
layer {
  name: "relu1"
  type: "ReLU"
  bottom: "conv1"
  top: "conv1"
  relu_param {
    negative_slope: 0.1
  }
}
layer {
  name: "conv2"
  type: "Convolution"
  bottom: "conv1"
  top: "conv2"
  param {
    lr_mult: 1
    decay_mult: 1
  }
  param {
    lr_mult: 1
    decay_mult: 0
  }
  convolution_param {
    num_output: 128
    pad: 2
    kernel_size: 5
    stride: 2
    weight_filler {
      type: "msra"
    }
    bias_filler {
      type: "constant"
    }
  }
}
layer {
  name: "relu2"
  type: "ReLU"
  bottom: "conv2"
  top: "conv2"
  relu_param {
    negative_slope: 0.1
  }
}
layer {
  name: "conv3"
  type: "Convolution"
  bottom: "conv2"
  top: "conv3"
  param {
    lr_mult: 1
    decay_mult: 1
  }
  param {
    lr_mult: 1
    decay_mult: 0
  }
  convolution_param {
    num_output: 256
    pad: 2
    kernel_size: 5
    stride: 2
    weight_filler {
      type: "msra"
    }
    bias_filler {
      type: "constant"
    }
  }
}
layer {
  name: "relu3"
  type: "ReLU"
  bottom: "conv3"
  top: "conv3"
  relu_param {
    negative_slope: 0.1
  }
}
layer {
  name: "conv3_1"
  type: "Convolution"
  bottom: "conv3"
  top: "conv3_1"
  param {
    lr_mult: 1
    decay_mult: 1
  }
  param {
    lr_mult: 1
    decay_mult: 0
  }
  convolution_param {
    num_output: 256
    pad: 1
    kernel_size: 3
    stride: 1
    weight_filler {
      type: "msra"
    }
    bias_filler {
      type: "constant"
    }
  }
}
layer {
  name: "relu3_1"
  type: "ReLU"
  bottom: "conv3_1"
  top: "conv3_1"
  relu_param {
    negative_slope: 0.1
  }
}
layer {
  name: "conv4"
  type: "Convolution"
  bottom: "conv3_1"
  top: "conv4"
  param {
    lr_mult: 1
    decay_mult: 1
  }
  param {
    lr_mult: 1
    decay_mult: 0
  }
  convolution_param {
    num_output: 512
    pad: 1
    kernel_size: 3
    stride: 2
    weight_filler {
      type: "msra"
    }
    bias_filler {
      type: "constant"
    }
  }
}
layer {
  name: "relu4"
  type: "ReLU"
  bottom: "conv4"
  top: "conv4"
  relu_param {
    negative_slope: 0.1
  }
}
layer {
  name: "conv4_1"
  type: "Convolution"
  bottom: "conv4"
  top: "conv4_1"
  param {
    lr_mult: 1
    decay_mult: 1
  }
  param {
    lr_mult: 1
    decay_mult: 0
  }
  convolution_param {
    num_output: 512
    pad: 1
    kernel_size: 3
    stride: 1
    weight_filler {
      type: "msra"
    }
    bias_filler {
      type: "constant"
    }
  }
}
layer {
  name: "ReLU4_1"
  type: "ReLU"
  bottom: "conv4_1"
  top: "conv4_1"
  relu_param {
    negative_slope: 0.1
  }
}
layer {
  name: "conv5"
  type: "Convolution"
  bottom: "conv4_1"
  top: "conv5"
  param {
    lr_mult: 1
    decay_mult: 1
  }
  param {
    lr_mult: 1
    decay_mult: 0
  }
  convolution_param {
    num_output: 512
    pad: 1
    kernel_size: 3
    stride: 2
    weight_filler {
      type: "msra"
    }
    bias_filler {
      type: "constant"
    }
  }
}
layer {
  name: "ReLU5"
  type: "ReLU"
  bottom: "conv5"
  top: "conv5"
  relu_param {
    negative_slope: 0.1
  }
}
layer {
  name: "conv5_1"
  type: "Convolution"
  bottom: "conv5"
  top: "conv5_1"
  param {
    lr_mult: 1
    decay_mult: 1
  }
  param {
    lr_mult: 1
    decay_mult: 0
  }
  convolution_param {
    num_output: 512
    pad: 1
    kernel_size: 3
    stride: 1
    weight_filler {
      type: "msra"
    }
    bias_filler {
      type: "constant"
    }
  }
}
layer {
  name: "ReLU5_1"
  type: "ReLU"
  bottom: "conv5_1"
  top: "conv5_1"
  relu_param {
    negative_slope: 0.1
  }
}
layer {
  name: "conv6"
  type: "Convolution"
  bottom: "conv5_1"
  top: "conv6"
  param {
    lr_mult: 1
    decay_mult: 1
  }
  param {
    lr_mult: 1
    decay_mult: 0
  }
  convolution_param {
    num_output: 1024
    pad: 1
    kernel_size: 3
    stride: 2
    weight_filler {
      type: "msra"
    }
    bias_filler {
      type: "constant"
    }
  }
}
layer {
  name: "ReLU6"
  type: "ReLU"
  bottom: "conv6"
  top: "conv6"
  relu_param {
    negative_slope: 0.1
  }
}
layer {
  name: "conv6_1"
  type: "Convolution"
  bottom: "conv6"
  top: "conv6_1"
  param {
    lr_mult: 1
    decay_mult: 1
  }
  param {
    lr_mult: 1
    decay_mult: 0
  }
  convolution_param {
    num_output: 1024
    pad: 1
    kernel_size: 3
    stride: 1
    weight_filler {
      type: "msra"
    }
    bias_filler {
      type: "constant"
    }
  }
}
layer {
  name: "ReLU6_1"
  type: "ReLU"
  bottom: "conv6_1"
  top: "conv6_1"
  relu_param {
    negative_slope: 0.1
  }
}
layer {
  name: "conv7"
  type: "Convolution"
  bottom: "conv6_1"
  top: "conv7"
  param {
    lr_mult: 1
    decay_mult: 1
  }
  param {
    lr_mult: 1
    decay_mult: 0
  }
  convolution_param {
    num_output: 1
    pad: 1
    kernel_size: 3
    stride: 1
    weight_filler {
      type: "msra"
    }
    bias_filler {
      type: "constant"
    }
  }
}
layer {
  name: "pool7"
  type: "Pooling"
  bottom: "conv7"
  top: "scale"
  pooling_param {
    pool: AVE
    global_pooling: true
  }
}
layer {
  name: "loss"
  type: "EuclideanLoss"
  bottom: "scale"
  bottom: "label"
  top: "loss"
}
I1119 17:56:09.321434  6574 layer_factory.hpp:77] Creating layer train_labels
I1119 17:56:09.321511  6574 db_lmdb.cpp:35] Opened lmdb workspace/lmdb/labels_no_00
I1119 17:56:09.321528  6574 net.cpp:84] Creating Layer train_labels
I1119 17:56:09.321533  6574 net.cpp:380] train_labels -> label
I1119 17:56:09.322329  6574 data_layer.cpp:45] output data size: 5,1,1,1
I1119 17:56:09.322469  6574 net.cpp:122] Setting up train_labels
I1119 17:56:09.322479  6574 net.cpp:129] Top shape: 5 1 1 1 (5)
I1119 17:56:09.322480  6574 net.cpp:137] Memory required for data: 20
I1119 17:56:09.322485  6574 layer_factory.hpp:77] Creating layer train_images
I1119 17:56:09.322532  6574 db_lmdb.cpp:35] Opened lmdb workspace/lmdb/images_no_00
I1119 17:56:09.322548  6574 net.cpp:84] Creating Layer train_images
I1119 17:56:09.322553  6574 net.cpp:380] train_images -> data
I1119 17:56:09.324663  6574 data_layer.cpp:45] output data size: 5,6,376,1241
I1119 17:56:09.410377  6574 net.cpp:122] Setting up train_images
I1119 17:56:09.410401  6574 net.cpp:129] Top shape: 5 6 376 1241 (13998480)
I1119 17:56:09.410403  6574 net.cpp:137] Memory required for data: 55993940
I1119 17:56:09.410408  6574 layer_factory.hpp:77] Creating layer conv1
I1119 17:56:09.410447  6574 net.cpp:84] Creating Layer conv1
I1119 17:56:09.410454  6574 net.cpp:406] conv1 <- data
I1119 17:56:09.410465  6574 net.cpp:380] conv1 -> conv1
I1119 17:56:09.412385  6574 net.cpp:122] Setting up conv1
I1119 17:56:09.412396  6574 net.cpp:129] Top shape: 5 64 188 621 (37359360)
I1119 17:56:09.412400  6574 net.cpp:137] Memory required for data: 205431380
I1119 17:56:09.412415  6574 layer_factory.hpp:77] Creating layer relu1
I1119 17:56:09.412420  6574 net.cpp:84] Creating Layer relu1
I1119 17:56:09.412425  6574 net.cpp:406] relu1 <- conv1
I1119 17:56:09.412428  6574 net.cpp:367] relu1 -> conv1 (in-place)
I1119 17:56:09.412434  6574 net.cpp:122] Setting up relu1
I1119 17:56:09.412437  6574 net.cpp:129] Top shape: 5 64 188 621 (37359360)
I1119 17:56:09.412439  6574 net.cpp:137] Memory required for data: 354868820
I1119 17:56:09.412441  6574 layer_factory.hpp:77] Creating layer conv2
I1119 17:56:09.412447  6574 net.cpp:84] Creating Layer conv2
I1119 17:56:09.412449  6574 net.cpp:406] conv2 <- conv1
I1119 17:56:09.412453  6574 net.cpp:380] conv2 -> conv2
I1119 17:56:09.414347  6574 net.cpp:122] Setting up conv2
I1119 17:56:09.414353  6574 net.cpp:129] Top shape: 5 128 94 311 (18709760)
I1119 17:56:09.414355  6574 net.cpp:137] Memory required for data: 429707860
I1119 17:56:09.414361  6574 layer_factory.hpp:77] Creating layer relu2
I1119 17:56:09.414364  6574 net.cpp:84] Creating Layer relu2
I1119 17:56:09.414366  6574 net.cpp:406] relu2 <- conv2
I1119 17:56:09.414369  6574 net.cpp:367] relu2 -> conv2 (in-place)
I1119 17:56:09.414373  6574 net.cpp:122] Setting up relu2
I1119 17:56:09.414376  6574 net.cpp:129] Top shape: 5 128 94 311 (18709760)
I1119 17:56:09.414377  6574 net.cpp:137] Memory required for data: 504546900
I1119 17:56:09.414379  6574 layer_factory.hpp:77] Creating layer conv3
I1119 17:56:09.414384  6574 net.cpp:84] Creating Layer conv3
I1119 17:56:09.414386  6574 net.cpp:406] conv3 <- conv2
I1119 17:56:09.414389  6574 net.cpp:380] conv3 -> conv3
I1119 17:56:09.422914  6574 net.cpp:122] Setting up conv3
I1119 17:56:09.422927  6574 net.cpp:129] Top shape: 5 256 47 156 (9384960)
I1119 17:56:09.422930  6574 net.cpp:137] Memory required for data: 542086740
I1119 17:56:09.422936  6574 layer_factory.hpp:77] Creating layer relu3
I1119 17:56:09.422941  6574 net.cpp:84] Creating Layer relu3
I1119 17:56:09.422945  6574 net.cpp:406] relu3 <- conv3
I1119 17:56:09.422948  6574 net.cpp:367] relu3 -> conv3 (in-place)
I1119 17:56:09.422952  6574 net.cpp:122] Setting up relu3
I1119 17:56:09.422955  6574 net.cpp:129] Top shape: 5 256 47 156 (9384960)
I1119 17:56:09.422956  6574 net.cpp:137] Memory required for data: 579626580
I1119 17:56:09.422960  6574 layer_factory.hpp:77] Creating layer conv3_1
I1119 17:56:09.422966  6574 net.cpp:84] Creating Layer conv3_1
I1119 17:56:09.422968  6574 net.cpp:406] conv3_1 <- conv3
I1119 17:56:09.422971  6574 net.cpp:380] conv3_1 -> conv3_1
I1119 17:56:09.428699  6574 net.cpp:122] Setting up conv3_1
I1119 17:56:09.428714  6574 net.cpp:129] Top shape: 5 256 47 156 (9384960)
I1119 17:56:09.428716  6574 net.cpp:137] Memory required for data: 617166420
I1119 17:56:09.428721  6574 layer_factory.hpp:77] Creating layer relu3_1
I1119 17:56:09.428727  6574 net.cpp:84] Creating Layer relu3_1
I1119 17:56:09.428730  6574 net.cpp:406] relu3_1 <- conv3_1
I1119 17:56:09.428733  6574 net.cpp:367] relu3_1 -> conv3_1 (in-place)
I1119 17:56:09.428738  6574 net.cpp:122] Setting up relu3_1
I1119 17:56:09.428741  6574 net.cpp:129] Top shape: 5 256 47 156 (9384960)
I1119 17:56:09.428743  6574 net.cpp:137] Memory required for data: 654706260
I1119 17:56:09.428745  6574 layer_factory.hpp:77] Creating layer conv4
I1119 17:56:09.428751  6574 net.cpp:84] Creating Layer conv4
I1119 17:56:09.428755  6574 net.cpp:406] conv4 <- conv3_1
I1119 17:56:09.428757  6574 net.cpp:380] conv4 -> conv4
I1119 17:56:09.441306  6574 net.cpp:122] Setting up conv4
I1119 17:56:09.441328  6574 net.cpp:129] Top shape: 5 512 24 78 (4792320)
I1119 17:56:09.441330  6574 net.cpp:137] Memory required for data: 673875540
I1119 17:56:09.441359  6574 layer_factory.hpp:77] Creating layer relu4
I1119 17:56:09.441367  6574 net.cpp:84] Creating Layer relu4
I1119 17:56:09.441370  6574 net.cpp:406] relu4 <- conv4
I1119 17:56:09.441375  6574 net.cpp:367] relu4 -> conv4 (in-place)
I1119 17:56:09.441381  6574 net.cpp:122] Setting up relu4
I1119 17:56:09.441385  6574 net.cpp:129] Top shape: 5 512 24 78 (4792320)
I1119 17:56:09.441386  6574 net.cpp:137] Memory required for data: 693044820
I1119 17:56:09.441388  6574 layer_factory.hpp:77] Creating layer conv4_1
I1119 17:56:09.441395  6574 net.cpp:84] Creating Layer conv4_1
I1119 17:56:09.441397  6574 net.cpp:406] conv4_1 <- conv4
I1119 17:56:09.441401  6574 net.cpp:380] conv4_1 -> conv4_1
I1119 17:56:09.463541  6574 net.cpp:122] Setting up conv4_1
I1119 17:56:09.463562  6574 net.cpp:129] Top shape: 5 512 24 78 (4792320)
I1119 17:56:09.463564  6574 net.cpp:137] Memory required for data: 712214100
I1119 17:56:09.463570  6574 layer_factory.hpp:77] Creating layer ReLU4_1
I1119 17:56:09.463578  6574 net.cpp:84] Creating Layer ReLU4_1
I1119 17:56:09.463582  6574 net.cpp:406] ReLU4_1 <- conv4_1
I1119 17:56:09.463585  6574 net.cpp:367] ReLU4_1 -> conv4_1 (in-place)
I1119 17:56:09.463593  6574 net.cpp:122] Setting up ReLU4_1
I1119 17:56:09.463596  6574 net.cpp:129] Top shape: 5 512 24 78 (4792320)
I1119 17:56:09.463598  6574 net.cpp:137] Memory required for data: 731383380
I1119 17:56:09.463599  6574 layer_factory.hpp:77] Creating layer conv5
I1119 17:56:09.463608  6574 net.cpp:84] Creating Layer conv5
I1119 17:56:09.463609  6574 net.cpp:406] conv5 <- conv4_1
I1119 17:56:09.463613  6574 net.cpp:380] conv5 -> conv5
I1119 17:56:09.485483  6574 net.cpp:122] Setting up conv5
I1119 17:56:09.485508  6574 net.cpp:129] Top shape: 5 512 12 39 (1198080)
I1119 17:56:09.485510  6574 net.cpp:137] Memory required for data: 736175700
I1119 17:56:09.485517  6574 layer_factory.hpp:77] Creating layer ReLU5
I1119 17:56:09.485524  6574 net.cpp:84] Creating Layer ReLU5
I1119 17:56:09.485527  6574 net.cpp:406] ReLU5 <- conv5
I1119 17:56:09.485535  6574 net.cpp:367] ReLU5 -> conv5 (in-place)
I1119 17:56:09.485543  6574 net.cpp:122] Setting up ReLU5
I1119 17:56:09.485544  6574 net.cpp:129] Top shape: 5 512 12 39 (1198080)
I1119 17:56:09.485546  6574 net.cpp:137] Memory required for data: 740968020
I1119 17:56:09.485548  6574 layer_factory.hpp:77] Creating layer conv5_1
I1119 17:56:09.485556  6574 net.cpp:84] Creating Layer conv5_1
I1119 17:56:09.485558  6574 net.cpp:406] conv5_1 <- conv5
I1119 17:56:09.485563  6574 net.cpp:380] conv5_1 -> conv5_1
I1119 17:56:09.507431  6574 net.cpp:122] Setting up conv5_1
I1119 17:56:09.507454  6574 net.cpp:129] Top shape: 5 512 12 39 (1198080)
I1119 17:56:09.507457  6574 net.cpp:137] Memory required for data: 745760340
I1119 17:56:09.507463  6574 layer_factory.hpp:77] Creating layer ReLU5_1
I1119 17:56:09.507472  6574 net.cpp:84] Creating Layer ReLU5_1
I1119 17:56:09.507475  6574 net.cpp:406] ReLU5_1 <- conv5_1
I1119 17:56:09.507480  6574 net.cpp:367] ReLU5_1 -> conv5_1 (in-place)
I1119 17:56:09.507486  6574 net.cpp:122] Setting up ReLU5_1
I1119 17:56:09.507489  6574 net.cpp:129] Top shape: 5 512 12 39 (1198080)
I1119 17:56:09.507491  6574 net.cpp:137] Memory required for data: 750552660
I1119 17:56:09.507493  6574 layer_factory.hpp:77] Creating layer conv6
I1119 17:56:09.507500  6574 net.cpp:84] Creating Layer conv6
I1119 17:56:09.507503  6574 net.cpp:406] conv6 <- conv5_1
I1119 17:56:09.507506  6574 net.cpp:380] conv6 -> conv6
I1119 17:56:09.551137  6574 net.cpp:122] Setting up conv6
I1119 17:56:09.551164  6574 net.cpp:129] Top shape: 5 1024 6 20 (614400)
I1119 17:56:09.551167  6574 net.cpp:137] Memory required for data: 753010260
I1119 17:56:09.551177  6574 layer_factory.hpp:77] Creating layer ReLU6
I1119 17:56:09.551187  6574 net.cpp:84] Creating Layer ReLU6
I1119 17:56:09.551189  6574 net.cpp:406] ReLU6 <- conv6
I1119 17:56:09.551194  6574 net.cpp:367] ReLU6 -> conv6 (in-place)
I1119 17:56:09.551201  6574 net.cpp:122] Setting up ReLU6
I1119 17:56:09.551203  6574 net.cpp:129] Top shape: 5 1024 6 20 (614400)
I1119 17:56:09.551226  6574 net.cpp:137] Memory required for data: 755467860
I1119 17:56:09.551229  6574 layer_factory.hpp:77] Creating layer conv6_1
I1119 17:56:09.551236  6574 net.cpp:84] Creating Layer conv6_1
I1119 17:56:09.551239  6574 net.cpp:406] conv6_1 <- conv6
I1119 17:56:09.551242  6574 net.cpp:380] conv6_1 -> conv6_1
I1119 17:56:09.637830  6574 net.cpp:122] Setting up conv6_1
I1119 17:56:09.637854  6574 net.cpp:129] Top shape: 5 1024 6 20 (614400)
I1119 17:56:09.637856  6574 net.cpp:137] Memory required for data: 757925460
I1119 17:56:09.637862  6574 layer_factory.hpp:77] Creating layer ReLU6_1
I1119 17:56:09.637871  6574 net.cpp:84] Creating Layer ReLU6_1
I1119 17:56:09.637873  6574 net.cpp:406] ReLU6_1 <- conv6_1
I1119 17:56:09.637878  6574 net.cpp:367] ReLU6_1 -> conv6_1 (in-place)
I1119 17:56:09.637884  6574 net.cpp:122] Setting up ReLU6_1
I1119 17:56:09.637887  6574 net.cpp:129] Top shape: 5 1024 6 20 (614400)
I1119 17:56:09.637889  6574 net.cpp:137] Memory required for data: 760383060
I1119 17:56:09.637890  6574 layer_factory.hpp:77] Creating layer conv7
I1119 17:56:09.637898  6574 net.cpp:84] Creating Layer conv7
I1119 17:56:09.637900  6574 net.cpp:406] conv7 <- conv6_1
I1119 17:56:09.637904  6574 net.cpp:380] conv7 -> conv7
I1119 17:56:09.638149  6574 net.cpp:122] Setting up conv7
I1119 17:56:09.638155  6574 net.cpp:129] Top shape: 5 1 6 20 (600)
I1119 17:56:09.638159  6574 net.cpp:137] Memory required for data: 760385460
I1119 17:56:09.638162  6574 layer_factory.hpp:77] Creating layer pool7
I1119 17:56:09.638166  6574 net.cpp:84] Creating Layer pool7
I1119 17:56:09.638169  6574 net.cpp:406] pool7 <- conv7
I1119 17:56:09.638171  6574 net.cpp:380] pool7 -> scale
I1119 17:56:09.638196  6574 net.cpp:122] Setting up pool7
I1119 17:56:09.638201  6574 net.cpp:129] Top shape: 5 1 1 1 (5)
I1119 17:56:09.638203  6574 net.cpp:137] Memory required for data: 760385480
I1119 17:56:09.638206  6574 layer_factory.hpp:77] Creating layer loss
I1119 17:56:09.638209  6574 net.cpp:84] Creating Layer loss
I1119 17:56:09.638211  6574 net.cpp:406] loss <- scale
I1119 17:56:09.638214  6574 net.cpp:406] loss <- label
I1119 17:56:09.638218  6574 net.cpp:380] loss -> loss
I1119 17:56:09.638252  6574 net.cpp:122] Setting up loss
…
