…
  stage: ""
}
layer {
  name: "train_labels"
  type: "Data"
  top: "label"
  include {
    phase: TRAIN
  }
  data_param {
    source: "workspace/lmdb/labels_no_00_aug"
    batch_size: 5
    backend: LMDB
  }
}
layer {
  name: "train_images"
  type: "Data"
  top: "data"
  include {
    phase: TRAIN
  }
  transform_param {
    scale: 0.0078125
    mean_value: 91
    mean_value: 91
    mean_value: 91
    mean_value: 91
    mean_value: 91
    mean_value: 91
  }
  data_param {
    source: "workspace/lmdb/images_no_00_aug"
    batch_size: 5
    backend: LMDB
  }
}
layer {
  name: "conv1"
  type: "Convolution"
  bottom: "data"
  top: "conv1"
  param {
    lr_mult: 1
    decay_mult: 1
  }
  param {
    lr_mult: 1
    decay_mult: 0
  }
  convolution_param {
    num_output: 64
    pad: 3
    kernel_size: 7
    stride: 2
    weight_filler {
      type: "msra"
    }
    bias_filler {
      type: "constant"
    }
  }
}
layer {
  name: "relu1"
  type: "ReLU"
  bottom: "conv1"
  top: "conv1"
  relu_param {
    negative_slope: 0.1
  }
}
layer {
  name: "conv2"
  type: "Convolution"
  bottom: "conv1"
  top: "conv2"
  param {
    lr_mult: 1
    decay_mult: 1
  }
  param {
    lr_mult: 1
    decay_mult: 0
  }
  convolution_param {
    num_output: 128
    pad: 2
    kernel_size: 5
    stride: 2
    weight_filler {
      type: "msra"
    }
    bias_filler {
      type: "constant"
    }
  }
}
layer {
  name: "relu2"
  type: "ReLU"
  bottom: "conv2"
  top: "conv2"
  relu_param {
    negative_slope: 0.1
  }
}
layer {
  name: "conv3"
  type: "Convolution"
  bottom: "conv2"
  top: "conv3"
  param {
    lr_mult: 1
    decay_mult: 1
  }
  param {
    lr_mult: 1
    decay_mult: 0
  }
  convolution_param {
    num_output: 256
    pad: 2
    kernel_size: 5
    stride: 2
    weight_filler {
      type: "msra"
    }
    bias_filler {
      type: "constant"
    }
  }
}
layer {
  name: "relu3"
  type: "ReLU"
  bottom: "conv3"
  top: "conv3"
  relu_param {
    negative_slope: 0.1
  }
}
layer {
  name: "conv3_1"
  type: "Convolution"
  bottom: "conv3"
  top: "conv3_1"
  param {
    lr_mult: 1
    decay_mult: 1
  }
  param {
    lr_mult: 1
    decay_mult: 0
  }
  convolution_param {
    num_output: 256
    pad: 1
    kernel_size: 3
    stride: 1
    weight_filler {
      type: "msra"
    }
    bias_filler {
      type: "constant"
    }
  }
}
layer {
  name: "relu3_1"
  type: "ReLU"
  bottom: "conv3_1"
  top: "conv3_1"
  relu_param {
    negative_slope: 0.1
  }
}
layer {
  name: "conv4"
  type: "Convolution"
  bottom: "conv3_1"
  top: "conv4"
  param {
    lr_mult: 1
    decay_mult: 1
  }
  param {
    lr_mult: 1
    decay_mult: 0
  }
  convolution_param {
    num_output: 512
    pad: 1
    kernel_size: 3
    stride: 2
    weight_filler {
      type: "msra"
    }
    bias_filler {
      type: "constant"
    }
  }
}
layer {
  name: "relu4"
  type: "ReLU"
  bottom: "conv4"
  top: "conv4"
  relu_param {
    negative_slope: 0.1
  }
}
layer {
  name: "conv4_1"
  type: "Convolution"
  bottom: "conv4"
  top: "conv4_1"
  param {
    lr_mult: 1
    decay_mult: 1
  }
  param {
    lr_mult: 1
    decay_mult: 0
  }
  convolution_param {
    num_output: 512
    pad: 1
    kernel_size: 3
    stride: 1
    weight_filler {
      type: "msra"
    }
    bias_filler {
      type: "constant"
    }
  }
}
layer {
  name: "ReLU4_1"
  type: "ReLU"
  bottom: "conv4_1"
  top: "conv4_1"
  relu_param {
    negative_slope: 0.1
  }
}
layer {
  name: "conv5"
  type: "Convolution"
  bottom: "conv4_1"
  top: "conv5"
  param {
    lr_mult: 1
    decay_mult: 1
  }
  param {
    lr_mult: 1
    decay_mult: 0
  }
  convolution_param {
    num_output: 512
    pad: 1
    kernel_size: 3
    stride: 2
    weight_filler {
      type: "msra"
    }
    bias_filler {
      type: "constant"
    }
  }
}
layer {
  name: "ReLU5"
  type: "ReLU"
  bottom: "conv5"
  top: "conv5"
  relu_param {
    negative_slope: 0.1
  }
}
layer {
  name: "conv5_1"
  type: "Convolution"
  bottom: "conv5"
  top: "conv5_1"
  param {
    lr_mult: 1
    decay_mult: 1
  }
  param {
    lr_mult: 1
    decay_mult: 0
  }
  convolution_param {
    num_output: 512
    pad: 1
    kernel_size: 3
    stride: 1
    weight_filler {
      type: "msra"
    }
    bias_filler {
      type: "constant"
    }
  }
}
layer {
  name: "ReLU5_1"
  type: "ReLU"
  bottom: "conv5_1"
  top: "conv5_1"
  relu_param {
    negative_slope: 0.1
  }
}
layer {
  name: "conv6"
  type: "Convolution"
  bottom: "conv5_1"
  top: "conv6"
  param {
    lr_mult: 1
    decay_mult: 1
  }
  param {
    lr_mult: 1
    decay_mult: 0
  }
  convolution_param {
    num_output: 1024
    pad: 1
    kernel_size: 3
    stride: 2
    weight_filler {
      type: "msra"
    }
    bias_filler {
      type: "constant"
    }
  }
}
layer {
  name: "ReLU6"
  type: "ReLU"
  bottom: "conv6"
  top: "conv6"
  relu_param {
    negative_slope: 0.1
  }
}
layer {
  name: "conv6_1"
  type: "Convolution"
  bottom: "conv6"
  top: "conv6_1"
  param {
    lr_mult: 1
    decay_mult: 1
  }
  param {
    lr_mult: 1
    decay_mult: 0
  }
  convolution_param {
    num_output: 1024
    pad: 1
    kernel_size: 3
    stride: 1
    weight_filler {
      type: "msra"
    }
    bias_filler {
      type: "constant"
    }
  }
}
layer {
  name: "ReLU6_1"
  type: "ReLU"
  bottom: "conv6_1"
  top: "conv6_1"
  relu_param {
    negative_slope: 0.1
  }
}
layer {
  name: "conv7"
  type: "Convolution"
  bottom: "conv6_1"
  top: "conv7"
  param {
    lr_mult: 1
    decay_mult: 1
  }
  param {
    lr_mult: 1
    decay_mult: 0
  }
  convolution_param {
    num_output: 1
    pad: 1
    kernel_size: 3
    stride: 1
    weight_filler {
      type: "msra"
    }
    bias_filler {
      type: "constant"
    }
  }
}
layer {
  name: "pool7"
  type: "Pooling"
  bottom: "conv7"
  top: "scale"
  pooling_param {
    pool: AVE
    global_pooling: true
  }
}
layer {
  name: "loss"
  type: "EuclideanLoss"
  bottom: "scale"
  bottom: "label"
  top: "loss"
}
I1116 07:09:59.282032  5966 layer_factory.hpp:77] Creating layer train_labels
I1116 07:09:59.282141  5966 db_lmdb.cpp:35] Opened lmdb workspace/lmdb/labels_no_00_aug
I1116 07:09:59.282173  5966 net.cpp:84] Creating Layer train_labels
I1116 07:09:59.282186  5966 net.cpp:380] train_labels -> label
I1116 07:09:59.283457  5966 data_layer.cpp:45] output data size: 5,1,1,1
I1116 07:09:59.283674  5966 net.cpp:122] Setting up train_labels
I1116 07:09:59.283704  5966 net.cpp:129] Top shape: 5 1 1 1 (5)
I1116 07:09:59.283717  5966 net.cpp:137] Memory required for data: 20
I1116 07:09:59.283735  5966 layer_factory.hpp:77] Creating layer train_images
I1116 07:09:59.283799  5966 db_lmdb.cpp:35] Opened lmdb workspace/lmdb/images_no_00_aug
I1116 07:09:59.283839  5966 net.cpp:84] Creating Layer train_images
I1116 07:09:59.283856  5966 net.cpp:380] train_images -> data
I1116 07:09:59.286058  5966 data_layer.cpp:45] output data size: 5,6,376,1241
I1116 07:09:59.398170  5966 net.cpp:122] Setting up train_images
I1116 07:09:59.398236  5966 net.cpp:129] Top shape: 5 6 376 1241 (13998480)
I1116 07:09:59.398255  5966 net.cpp:137] Memory required for data: 55993940
I1116 07:09:59.398281  5966 layer_factory.hpp:77] Creating layer conv1
I1116 07:09:59.398331  5966 net.cpp:84] Creating Layer conv1
I1116 07:09:59.398355  5966 net.cpp:406] conv1 <- data
I1116 07:09:59.398385  5966 net.cpp:380] conv1 -> conv1
I1116 07:09:59.403700  5966 net.cpp:122] Setting up conv1
I1116 07:09:59.403766  5966 net.cpp:129] Top shape: 5 64 188 621 (37359360)
I1116 07:09:59.403786  5966 net.cpp:137] Memory required for data: 205431380
I1116 07:09:59.403825  5966 layer_factory.hpp:77] Creating layer relu1
I1116 07:09:59.403851  5966 net.cpp:84] Creating Layer relu1
I1116 07:09:59.403870  5966 net.cpp:406] relu1 <- conv1
I1116 07:09:59.403888  5966 net.cpp:367] relu1 -> conv1 (in-place)
I1116 07:09:59.403913  5966 net.cpp:122] Setting up relu1
I1116 07:09:59.403931  5966 net.cpp:129] Top shape: 5 64 188 621 (37359360)
I1116 07:09:59.403944  5966 net.cpp:137] Memory required for data: 354868820
I1116 07:09:59.403959  5966 layer_factory.hpp:77] Creating layer conv2
I1116 07:09:59.403985  5966 net.cpp:84] Creating Layer conv2
I1116 07:09:59.403998  5966 net.cpp:406] conv2 <- conv1
I1116 07:09:59.404017  5966 net.cpp:380] conv2 -> conv2
I1116 07:09:59.409286  5966 net.cpp:122] Setting up conv2
I1116 07:09:59.409348  5966 net.cpp:129] Top shape: 5 128 94 311 (18709760)
I1116 07:09:59.409365  5966 net.cpp:137] Memory required for data: 429707860
I1116 07:09:59.409389  5966 layer_factory.hpp:77] Creating layer relu2
I1116 07:09:59.409412  5966 net.cpp:84] Creating Layer relu2
I1116 07:09:59.409431  5966 net.cpp:406] relu2 <- conv2
I1116 07:09:59.409447  5966 net.cpp:367] relu2 -> conv2 (in-place)
I1116 07:09:59.409468  5966 net.cpp:122] Setting up relu2
I1116 07:09:59.409487  5966 net.cpp:129] Top shape: 5 128 94 311 (18709760)
I1116 07:09:59.409499  5966 net.cpp:137] Memory required for data: 504546900
I1116 07:09:59.409512  5966 layer_factory.hpp:77] Creating layer conv3
I1116 07:09:59.409534  5966 net.cpp:84] Creating Layer conv3
I1116 07:09:59.409550  5966 net.cpp:406] conv3 <- conv2
I1116 07:09:59.409566  5966 net.cpp:380] conv3 -> conv3
I1116 07:09:59.424006  5966 net.cpp:122] Setting up conv3
I1116 07:09:59.424069  5966 net.cpp:129] Top shape: 5 256 47 156 (9384960)
I1116 07:09:59.424084  5966 net.cpp:137] Memory required for data: 542086740
I1116 07:09:59.424106  5966 layer_factory.hpp:77] Creating layer relu3
I1116 07:09:59.424129  5966 net.cpp:84] Creating Layer relu3
I1116 07:09:59.424141  5966 net.cpp:406] relu3 <- conv3
I1116 07:09:59.424160  5966 net.cpp:367] relu3 -> conv3 (in-place)
I1116 07:09:59.424180  5966 net.cpp:122] Setting up relu3
I1116 07:09:59.424193  5966 net.cpp:129] Top shape: 5 256 47 156 (9384960)
I1116 07:09:59.424204  5966 net.cpp:137] Memory required for data: 579626580
I1116 07:09:59.424217  5966 layer_factory.hpp:77] Creating layer conv3_1
I1116 07:09:59.424239  5966 net.cpp:84] Creating Layer conv3_1
I1116 07:09:59.424252  5966 net.cpp:406] conv3_1 <- conv3
I1116 07:09:59.424264  5966 net.cpp:380] conv3_1 -> conv3_1
I1116 07:09:59.433847  5966 net.cpp:122] Setting up conv3_1
I1116 07:09:59.433923  5966 net.cpp:129] Top shape: 5 256 47 156 (9384960)
I1116 07:09:59.433938  5966 net.cpp:137] Memory required for data: 617166420
I1116 07:09:59.433955  5966 layer_factory.hpp:77] Creating layer relu3_1
I1116 07:09:59.433975  5966 net.cpp:84] Creating Layer relu3_1
I1116 07:09:59.433990  5966 net.cpp:406] relu3_1 <- conv3_1
I1116 07:09:59.434005  5966 net.cpp:367] relu3_1 -> conv3_1 (in-place)
I1116 07:09:59.434022  5966 net.cpp:122] Setting up relu3_1
I1116 07:09:59.434038  5966 net.cpp:129] Top shape: 5 256 47 156 (9384960)
I1116 07:09:59.434048  5966 net.cpp:137] Memory required for data: 654706260
I1116 07:09:59.434058  5966 layer_factory.hpp:77] Creating layer conv4
I1116 07:09:59.434077  5966 net.cpp:84] Creating Layer conv4
I1116 07:09:59.434088  5966 net.cpp:406] conv4 <- conv3_1
I1116 07:09:59.434104  5966 net.cpp:380] conv4 -> conv4
I1116 07:09:59.459543  5966 net.cpp:122] Setting up conv4
I1116 07:09:59.459605  5966 net.cpp:129] Top shape: 5 512 24 78 (4792320)
I1116 07:09:59.459630  5966 net.cpp:137] Memory required for data: 673875540
I1116 07:09:59.459666  5966 layer_factory.hpp:77] Creating layer relu4
I1116 07:09:59.459689  5966 net.cpp:84] Creating Layer relu4
I1116 07:09:59.459702  5966 net.cpp:406] relu4 <- conv4
I1116 07:09:59.459717  5966 net.cpp:367] relu4 -> conv4 (in-place)
I1116 07:09:59.459738  5966 net.cpp:122] Setting up relu4
I1116 07:09:59.459751  5966 net.cpp:129] Top shape: 5 512 24 78 (4792320)
I1116 07:09:59.459761  5966 net.cpp:137] Memory required for data: 693044820
I1116 07:09:59.459772  5966 layer_factory.hpp:77] Creating layer conv4_1
I1116 07:09:59.459794  5966 net.cpp:84] Creating Layer conv4_1
I1116 07:09:59.459805  5966 net.cpp:406] conv4_1 <- conv4
I1116 07:09:59.459818  5966 net.cpp:380] conv4_1 -> conv4_1
I1116 07:09:59.496433  5966 net.cpp:122] Setting up conv4_1
I1116 07:09:59.496505  5966 net.cpp:129] Top shape: 5 512 24 78 (4792320)
I1116 07:09:59.496520  5966 net.cpp:137] Memory required for data: 712214100
I1116 07:09:59.496538  5966 layer_factory.hpp:77] Creating layer ReLU4_1
I1116 07:09:59.496561  5966 net.cpp:84] Creating Layer ReLU4_1
I1116 07:09:59.496573  5966 net.cpp:406] ReLU4_1 <- conv4_1
I1116 07:09:59.496588  5966 net.cpp:367] ReLU4_1 -> conv4_1 (in-place)
I1116 07:09:59.496609  5966 net.cpp:122] Setting up ReLU4_1
I1116 07:09:59.496624  5966 net.cpp:129] Top shape: 5 512 24 78 (4792320)
I1116 07:09:59.496634  5966 net.cpp:137] Memory required for data: 731383380
I1116 07:09:59.496644  5966 layer_factory.hpp:77] Creating layer conv5
I1116 07:09:59.496661  5966 net.cpp:84] Creating Layer conv5
I1116 07:09:59.496675  5966 net.cpp:406] conv5 <- conv4_1
I1116 07:09:59.496690  5966 net.cpp:380] conv5 -> conv5
I1116 07:09:59.533529  5966 net.cpp:122] Setting up conv5
I1116 07:09:59.533599  5966 net.cpp:129] Top shape: 5 512 12 39 (1198080)
I1116 07:09:59.533614  5966 net.cpp:137] Memory required for data: 736175700
I1116 07:09:59.533632  5966 layer_factory.hpp:77] Creating layer ReLU5
I1116 07:09:59.533653  5966 net.cpp:84] Creating Layer ReLU5
I1116 07:09:59.533666  5966 net.cpp:406] ReLU5 <- conv5
I1116 07:09:59.533684  5966 net.cpp:367] ReLU5 -> conv5 (in-place)
I1116 07:09:59.533704  5966 net.cpp:122] Setting up ReLU5
I1116 07:09:59.533717  5966 net.cpp:129] Top shape: 5 512 12 39 (1198080)
I1116 07:09:59.533726  5966 net.cpp:137] Memory required for data: 740968020
I1116 07:09:59.533740  5966 layer_factory.hpp:77] Creating layer conv5_1
I1116 07:09:59.533759  5966 net.cpp:84] Creating Layer conv5_1
I1116 07:09:59.533771  5966 net.cpp:406] conv5_1 <- conv5
I1116 07:09:59.533785  5966 net.cpp:380] conv5_1 -> conv5_1
I1116 07:09:59.570336  5966 net.cpp:122] Setting up conv5_1
I1116 07:09:59.570415  5966 net.cpp:129] Top shape: 5 512 12 39 (1198080)
I1116 07:09:59.570430  5966 net.cpp:137] Memory required for data: 745760340
I1116 07:09:59.570448  5966 layer_factory.hpp:77] Creating layer ReLU5_1
I1116 07:09:59.570471  5966 net.cpp:84] Creating Layer ReLU5_1
I1116 07:09:59.570482  5966 net.cpp:406] ReLU5_1 <- conv5_1
I1116 07:09:59.570498  5966 net.cpp:367] ReLU5_1 -> conv5_1 (in-place)
I1116 07:09:59.570518  5966 net.cpp:122] Setting up ReLU5_1
I1116 07:09:59.570533  5966 net.cpp:129] Top shape: 5 512 12 39 (1198080)
I1116 07:09:59.570543  5966 net.cpp:137] Memory required for data: 750552660
I1116 07:09:59.570552  5966 layer_factory.hpp:77] Creating layer conv6
I1116 07:09:59.570571  5966 net.cpp:84] Creating Layer conv6
I1116 07:09:59.570583  5966 net.cpp:406] conv6 <- conv5_1
I1116 07:09:59.570596  5966 net.cpp:380] conv6 -> conv6
I1116 07:09:59.642942  5966 net.cpp:122] Setting up conv6
I1116 07:09:59.643014  5966 net.cpp:129] Top shape: 5 1024 6 20 (614400)
I1116 07:09:59.643030  5966 net.cpp:137] Memory required for data: 753010260
I1116 07:09:59.643054  5966 layer_factory.hpp:77] Creating layer ReLU6
I1116 07:09:59.643076  5966 net.cpp:84] Creating Layer ReLU6
I1116 07:09:59.643090  5966 net.cpp:406] ReLU6 <- conv6
I1116 07:09:59.643110  5966 net.cpp:367] ReLU6 -> conv6 (in-place)
I1116 07:09:59.643131  5966 net.cpp:122] Setting up ReLU6
I1116 07:09:59.643157  5966 net.cpp:129] Top shape: 5 1024 6 20 (614400)
I1116 07:09:59.643179  5966 net.cpp:137] Memory required for data: 755467860
I1116 07:09:59.643191  5966 layer_factory.hpp:77] Creating layer conv6_1
I1116 07:09:59.643210  5966 net.cpp:84] Creating Layer conv6_1
I1116 07:09:59.643221  5966 net.cpp:406] conv6_1 <- conv6
I1116 07:09:59.643236  5966 net.cpp:380] conv6_1 -> conv6_1
I1116 07:09:59.786033  5966 net.cpp:122] Setting up conv6_1
I1116 07:09:59.786097  5966 net.cpp:129] Top shape: 5 1024 6 20 (614400)
I1116 07:09:59.786110  5966 net.cpp:137] Memory required for data: 757925460
I1116 07:09:59.786128  5966 layer_factory.hpp:77] Creating layer ReLU6_1
I1116 07:09:59.786149  5966 net.cpp:84] Creating Layer ReLU6_1
I1116 07:09:59.786161  5966 net.cpp:406] ReLU6_1 <- conv6_1
I1116 07:09:59.786176  5966 net.cpp:367] ReLU6_1 -> conv6_1 (in-place)
I1116 07:09:59.786195  5966 net.cpp:122] Setting up ReLU6_1
I1116 07:09:59.786211  5966 net.cpp:129] Top shape: 5 1024 6 20 (614400)
I1116 07:09:59.786219  5966 net.cpp:137] Memory required for data: 760383060
I1116 07:09:59.786229  5966 layer_factory.hpp:77] Creating layer conv7
I1116 07:09:59.786248  5966 net.cpp:84] Creating Layer conv7
I1116 07:09:59.786262  5966 net.cpp:406] conv7 <- conv6_1
I1116 07:09:59.786274  5966 net.cpp:380] conv7 -> conv7
I1116 07:09:59.786667  5966 net.cpp:122] Setting up conv7
I1116 07:09:59.786689  5966 net.cpp:129] Top shape: 5 1 6 20 (600)
I1116 07:09:59.786701  5966 net.cpp:137] Memory required for data: 760385460
I1116 07:09:59.786716  5966 layer_factory.hpp:77] Creating layer pool7
I1116 07:09:59.786731  5966 net.cpp:84] Creating Layer pool7
I1116 07:09:59.786744  5966 net.cpp:406] pool7 <- conv7
I1116 07:09:59.786758  5966 net.cpp:380] pool7 -> scale
I1116 07:09:59.786804  5966 net.cpp:122] Setting up pool7
I1116 07:09:59.786823  5966 net.cpp:129] Top shape: 5 1 1 1 (5)
I1116 07:09:59.786834  5966 net.cpp:137] Memory required for data: 760385480
I1116 07:09:59.786846  5966 layer_factory.hpp:77] Creating layer loss
I1116 07:09:59.786859  5966 net.cpp:84] Creating Layer loss
I1116 07:09:59.786870  5966 net.cpp:406] loss <- scale
I1116 07:09:59.786881  5966 net.cpp:406] loss <- label
I1116 07:09:59.786895  5966 net.cpp:380] loss -> loss
I1116 07:09:59.786953  5966 net.cpp:122] Setting up loss
…
